…
Note that the noun is the current exchange rate of time noun, not noun of cover deal in Section . It is simplification in order to make implementation easy.

In this research, the reward is defined as same as the profit.

DQN
As agent of RL, this research utilizes DQN where the policy is Boltzmann Q Policy, or soft-max policy.

The neural network is constructed with Keras as below:
[caption=Neural network structure with Keras, label=list:network]
  Layer (type)                 Output Shape              Param #   
  =================================================================
  flatten_1 (Flatten)          (None, 9)                 0         
  _________________________________________________________________
  dense_1 (Dense)              (None, 16)                160       
  _________________________________________________________________
  activation_1 (Activation)    (None, 16)                0         
  _________________________________________________________________
  dense_2 (Dense)              (None, 16)                272       
  _________________________________________________________________
  activation_2 (Activation)    (None, 16)                0         
  _________________________________________________________________
  dense_3 (Dense)              (None, 16)                272       
  _________________________________________________________________
  activation_3 (Activation)    (None, 16)                0         
  _________________________________________________________________
  dense_4 (Dense)              (None, 4)                 68        
  _________________________________________________________________
  activation_4 (Activation)    (None, 4)                 0         
  =================================================================
  Total params: 772
  Trainable params: 772
  Non-trainable params: 0

In Listing , the flatten1 layer is the input layer which takes the state elements as Equation . The activation1, activation2, and activation3 layers utilize ReLU (Rectified Linear Unit) activation, and the activation4 layer uses linear activation. The dense1, dense2, dense3 and dense4 layers are densely-connected (fully-connected) neural network layers. The activation4 corresponds to the output layer on the right side of Figure  to decide to take an action as WAIT, SHORT, LONG or LIQUIDATE.
…
