_________________________________________________________________
Layer (type)                 Output Shape              Param #   
=================================================================
flatten_1 (Flatten)          (None, 9)                 0         
_________________________________________________________________
dense_1 (Dense)              (None, 16)                160       
_________________________________________________________________
activation_1 (Activation)    (None, 16)                0         
_________________________________________________________________
dense_2 (Dense)              (None, 16)                272       
_________________________________________________________________
activation_2 (Activation)    (None, 16)                0         
_________________________________________________________________
dense_3 (Dense)              (None, 16)                272       
_________________________________________________________________
activation_3 (Activation)    (None, 16)                0         
_________________________________________________________________
dense_4 (Dense)              (None, 4)                 68        
_________________________________________________________________
activation_4 (Activation)    (None, 4)                 0         
=================================================================
Total params: 772
Trainable params: 772
Non-trainable params: 0
_________________________________________________________________
Training for 50000 steps ...
Interval 1 (0 steps performed)

    1/10000 [..............................] - ETA: 7:40 - reward: 0.0000e+00
   27/10000 [..............................] - ETA: 36s - reward: 96.2963    
…
